classifier.pt (torch, 6331 bytes, 3 tensors)

weight f4 [16, 40]
00000000: b817 f73c cf40 c7bd b054 69be 2197 a03c
00000010: 4852 9ebd 6466 253d a93e 773d ba48 5a3c
00000020: 963a 543d da11 9abd 76e3 b2bc 950a cfbc
00000030: 0209 10be 99da 5c3d 3b17 313e dcbb f4bb
00000040: a240 94bc abcd 5fbd 23c7 0dbe bebc 4c3e
00000050: 2089 723d dfc2 fa3c e47d 05be 5eb5 fabd
00000060: 18c4 9abd ba33 b8bc ed9a c1bd 098a 053b
00000070: 5359 0bbe 313a b43d 71be c1bd 4838 1a3c
00000080: 31cc 52bd 2e72 bebd f11d 0ebe 44ce 4bbd
00000090: 0ee3 ff3d 9bed 53be f2ad 43be 146e 81bb
000000a0: 7f0e cdbb 648c 9a3d 45cb 5bbe 7779 08bd
000000b0: d438 5c3d 65d0 48be 18d2 0d3c 7d02 043e
000000c0: 59d7 32bd 89c8 bb3d 09fb 833d 846f a83c
000000d0: c7d8 7cbe 88b5 fdbd 2cf4 a1bc 54e9 a93d
000000e0: 72f0 08be 96cc 3c3e f7ed 66bd e1f7 053e
000000f0: 0f47 0b3d 540a b93d 7df1 293d 1e3c 073e
00000100: 9e72 26be a7ef efbc 6cce b63c 9cae eabd
00000110: 9113 eabc 9f61 04be be28 8abd a907 50bd
00000120: 2394 10be 022d 56bb 5cda 8abd dc0c 74bd
00000130: fe97 1d3e 5f4e e1bd 9fdf 693d fb02 48be
00000140: 007f c7ba 20b3 7cbc c801 35bd 00e6 a3bd
00000150: 1067 9ebc b652 6ebd d6ba d13d 7251 f33d
00000160: 5073 83bc f858 ddbc f68a e43d 459e 8dbd
00000170: 80bd 2e3d 84d3 afbd 1021 5a3d 204d 843c
00000180: 1060 493c d985 113e 403e 3fbc 506e 01be
00000190: 1e1b 7bbd e86a bdbc 4ae4 d3bd b0df f8bc
000001a0: a279 913d b279 a4bd b6f9 b9bd 70e3 6abd
000001b0: 59ca 04be 84a8 e7bd 3f95 1abe c8ac 783d
000001c0: 32c4 8e3d f882 a83c afdc 9fbd 6335 1cbe
000001d0: 582a b33d 62fd ed3d c2b4 e83d fe30 fa3d
000001e0: 7fb9 f23d 1293 dc3c cb07 f6bd 729a 04be
000001f0: 18bc 5c3e 2a1e 7a3c 3118 d4bd 7a1c 003e
00000200: 3e48 e03c 9a66 2fbd c5a9 c53d 9c28 5f3d
00000210: 3c9e 8ebe 2051 3b3e 5ad1 533e 840f 423e
00000220: 16e3 a6bd ecdc d93d f4e8 b43d a656 323e
00000230: 8c5f 9b3d 8cd2 33be 4fb1 d0bd a353 5ebe
00000240: 040a 823d a3d6 603d 6014 6d3d 87a3 08be
00000250: 99a9 3fbe a945 20be c970 42be a3e1 53be
00000260: c436 a43d 9335 c73d 8900 91bb 1003 993b
00000270: 492e debc 5af3 7abd 3762 f2bd 8d2d 2cbd
00000280: ec7f 9cbd dda4 dfbd 4566 423e 6300 223e
00000290: 3991 8a3c 155c 5d3d 59d8 1b3e 2667 283c
000002a0: 71da 253d e8ff 42bb de01 a43d 895b 23be
000002b0: 8065 213e a7c1 2dbe a029 383d c6bc e43c
000002c0: 6548 bfbc 4d0f 93bd 6f35 733d 0c12 69bd
000002d0: 8361 2d3c a40d 153e 7ea6 edbd 51e9 b83d
000002e0: e65e d63d ac32 a9bd 02a2 67bd 198b 803d
000002f0: 217f 60bc 2766 bb3d 982e cebd e3fe ec3d
00000300: 39a6 09be 7c1b 943d 5b58 db3d 2ce0 5a3c
00000310: c47a e43d 88fa e43b ee94 32bc b691 663e
00000320: 9ce4 4bbb 9b50 ff3c 91a7 263e a0e0 083e
00000330: 86f7 42be 4a59 4e3e 8ec0 e73c e561 0abe
00000340: 3f18 cbbd 5837 e0bd 4ef0 9a3d 71b3 b8bd
00000350: f53e 963d b386 b53d f29b e43d 67fa f93d
00000360: 2ff2 dfbd cf07 2dbe b044 403e af35 44be
00000370: f0f1 013d aa0c 84bb bafa 42bd 9a64 863c
00000380: 5060 b73b f65b 8d3b 999e 16be 8557 e7bd
00000390: fc68 cb3d 408c dd3d 9b79 a7bd 3d5e b2bd
000003a0: 668d be3d 62b9 efbd 967c 2d3d 1063 1cbe
000003b0: 353c 4fbd df90 063e 4b46 e6bd 798a 373e
000003c0: 40d6 21bd edb2 82bd 5390 38be 7c1a 45be
000003d0: d2c8 3a3d faf3 fabd 97ea ccbd 10c6 873d
000003e0: 4ebe e23d 2077 043e d801 303d b45f ab3d
000003f0: f94c 52be 1391 893d c01a d8bd 608b 92bd
0.030162677 -0.09729158 -0.22786212 0.019603314 -0.07730538 0.04038085 0.06036249 0.013323003
0.051813684 -0.07522936 -0.021836977 -0.0252736 -0.14065936 0.05391941 0.17294018 -0.0074686836
-0.018097226 -0.0546395 -0.13845496 0.19993874 0.059212804 0.0306105 -0.13036305 -0.12241624
-0.07556933 -0.022485603 -0.09453378 0.0020376465 -0.13608293 0.08800162 -0.09460152 0.009412833
-0.051464263 -0.09299122 -0.13878609 -0.049757257 0.12494479 -0.20696108 -0.19109324 -0.00394989
-0.0062578316 0.07546309 -0.2146426 -0.033318963 0.053765133 -0.19610746 0.008656047 0.12891574
-0.043662403 0.091691084 0.064443655 0.020560987 -0.24692069 -0.1238814 -0.01976975 0.08296457
-0.13372973 0.18437418 -0.056379285 0.1308284 0.034003314 0.09035173 0.041490067 0.13206527
-0.1625466 -0.02928908 0.022315226 -0.11459085 -0.028573783 -0.12927864 -0.06746052 -0.050788555
-0.1411901 -0.0032680635 -0.0677993 -0.059582576 0.15390012 -0.11001276 0.057098027 -0.19532387
-0.0015220344 -0.015423566 -0.04419115 -0.080028534 -0.019336253 -0.058184348 0.10240714 0.11880769
-0.016046196 -0.027019963 0.11159317 -0.06914953 0.04266119 -0.08585265 0.053254187 0.016150057
0.0122909695 0.14211215 -0.011672556 -0.12639737 -0.061305158 -0.023122266 -0.10346277 -0.0303801
0.07103278 -0.08031024 -0.09080832 -0.057345808 -0.12967815 -0.11311439 -0.15095995 0.060711652
0.06971015 0.020570263 -0.07805764 -0.1525474 0.08748311 0.116205946 0.11362602 0.12216376
0.11851787 0.026925597 -0.12013205 -0.12949541 0.21556127 0.015265981 -0.10356177 0.12510863
0.027378198 -0.042822458 0.096515216 0.054482087 -0.27855098 0.18292665 0.2068533 0.18951231
-0.08148782 0.10637841 0.08833495 0.17415866 0.075865835 -0.17560786 -0.10190069 -0.21711592
0.063495666 0.054892194 0.05788076 -0.1334363 -0.1871704 -0.15651573 -0.18988337 -0.20691542
0.08018258 0.09727015 -0.0044251126 0.0046695545 -0.02712168 -0.061267234 -0.11835139 -0.042035628
-0.07641587 -0.10920117 0.18984325 0.1582046 0.01691495 0.054042894 0.15219249 0.010278499
0.040491525 -0.0029754583 0.08008169 -0.15952887 0.15761375 -0.16968404 0.04496157 0.027922045
-0.02334995 -0.07180653 0.05937713 -0.056901976 0.010582331 0.14555985 -0.116040215 0.090288766
0.10467319 -0.08261618 -0.056550987 0.06276531 -0.013702185 0.091503434 -0.10067481 0.11572053
-0.13442315 0.07231805 0.10710212 0.013359111 0.11156228 0.0069878735 -0.010899765 0.22516522
-0.0031111604 0.031166365 0.16274859 0.13366938 -0.19039735 0.20151249 0.02829006 -0.13513906
-0.09916734 -0.10948056 0.07565366 -0.09018601 0.07336227 0.088635825 0.11162557 0.122059636
-0.10934865 -0.1689751 0.18776202 -0.19161104 0.03172487 -0.00402983 -0.047602393 0.016405392
0.005596198 0.004313941 -0.14708938 -0.1129599 0.099321336 0.10817766 -0.08177491 -0.08709381
0.09304313 -0.11705281 0.042355143 -0.15272164 -0.050594527 0.13141201 -0.11243876 0.17923917
-0.039510965 -0.06381784 -0.18023805 -0.19248384 0.045601673 -0.12253566 -0.10005682 0.06629574
0.11071454 0.12936068 0.04297051 0.08367863 -0.20537175 0.06717124 -0.10551977 -0.0715549

bias f4 [16]
00000000: 4e30 aabc 3a47 193e 54d4 bbbd bc83 fabd
00000010: 1e34 34bd de37 e8ba 2530 41be cd95 053e
00000020: cef3 c4bd a124 11bd 6837 ccbd b02b cb3d
00000030: f89a b2bd 56b8 33be c653 ba3d 3ce1 18be
-0.020774987 0.14968577 -0.09171358 -0.122321576 -0.043995015 -0.0017716845 -0.18866022 0.13045426
-0.096168146 -0.035435323 -0.099715054 0.09920442 -0.08720964 -0.17550787 0.0909801 -0.1492967

weight f4 [1, 16]
00000000: f183 b2bd 3b03 c5bd b062 cd3d a80e 1fbc
00000010: f93d 2a3e 520e bb3c faba 17be 2013 963c
00000020: 5871 b4bc 8bbb 073c 8c97 6cbc e4d1 97be
00000030: 90d7 53bd b804 a4bb f630 25be 1b7e 233e
-0.08716572 -0.09619757 0.10028589 -0.009708084 0.16625203 0.022833977 -0.1481742 0.018319666
-0.022026703 0.00828446 -0.014440428 -0.2965232 -0.05171925 -0.0050054453 -0.16131958 0.15966074
