classifier.pt (torch, 5179 bytes, 3 tensors)

0.weight f4 [16, 40]
-0.15584382 0.08407262 -0.07710788 -0.07856789 0.048207894 -0.016044319 0.048519865 -0.15395541
0.03978619 -0.10898348 0.111401096 -0.09978189 0.029977396 0.012163281 -0.02853097 -0.07563248
-0.107020184 -0.079378255 0.0034273416 -0.12816815 -0.11235252 -0.15064736 0.023466483 -0.00024676323
0.13520752 -0.11168202 0.06194675 -0.12173969 0.017959177 -0.15521376 -0.020694956 0.08755137
0.11942582 0.09954463 -0.0739312 -0.009943888 0.14048634 0.15105166 -0.04949501 -0.0036566108
-0.0111644715 -0.032564983 -0.105189264 0.059389576 -0.15034957 0.14592756 -0.088635445 0.08112404
-0.13166542 0.13772686 -0.121233076 0.054733634 -0.10457145 0.11121042 -0.05128196 -0.13473469
-0.049558006 0.023978457 0.093905196 0.14099859 -0.13100624 0.11975266 -0.08313328 0.023143739
0.11176221 -0.058010943 0.081994176 0.012473151 -0.123450264 0.13627754 0.017430112 0.018152416
-0.015972883 0.15383328 0.10929321 -0.019236818 0.07600935 -0.01334095 0.007301867 0.071583316
0.07714181 0.008476132 0.09925535 -0.07200623 -0.03161352 0.20142742 0.10358068 0.09437137
0.055330865 0.03549404 0.034970548 -0.010652377 0.0021397385 0.17586826 0.13755879 -0.03406383
-0.06331172 0.15632118 0.18098353 0.001368314 0.03725992 -0.18114665 -0.074298844 0.068127304
-0.090736076 -0.065391 -0.056895778 0.039590385 -0.08080441 -0.16429764 -0.16515428 -0.1283567
-0.023019722 -0.09459404 -0.062572844 -0.021320954 -0.03750608 -0.11203531 -0.018349675 0.09241541
0.009596299 -0.010819208 -0.39431313 -0.17147273 0.04773377 -0.19633786 -0.03204039 -0.074949265
-0.06335753 0.0296039 -0.18354237 0.010375069 -0.20219724 -0.10521218 -0.042153034 -0.02129835
0.10939327 0.16645375 -0.015875446 -0.053335078 0.05545927 -0.14723861 0.060454637 -0.05361935
-0.02513215 0.06717609 -0.107408725 -0.110462144 0.13697304 0.023985738 0.011089591 -0.16872837
-0.0122063495 -0.0970241 -0.15186867 0.061257523 0.08387412 -0.16231394 -0.17483097 -0.22932161
-0.055665888 -0.04639309 0.13566191 0.023024574 -0.15479976 0.051751837 0.049263865 0.032679886
0.15036236 -0.092464775 0.120453045 0.114380285 0.04035014 0.11671539 -0.14744125 -0.07054182
-0.10808772 -0.087415315 0.1451108 0.15580861 -0.07526588 0.119069025 -0.0006764531 -0.14832985
-0.024224564 0.12797455 0.040426224 -0.14403802 0.052712858 -0.006426841 -0.056915663 0.039184734
0.03474945 -0.056674965 -0.13221611 -0.05324778 0.03434138 -0.060444206 0.045536175 0.051396042
0.24314418 0.026237698 -0.0057789003 0.014435533 0.116391554 -0.03658796 0.08425761 -0.0426621
-0.026770633 0.25823104 -0.025132297 0.104853615 0.086689785 -0.030688686 0.1526689 0.21762605
0.13774185 0.09736603 0.11110127 0.07549102 -0.06394489 -0.19594571 0.050263003 -0.09825988
0.010489571 -0.02979533 -0.237711 0.026882851 -0.24607694 -0.18321721 0.013829169 -0.22893818
-0.056903638 -0.1529283 -0.016513404 -0.21885367 -0.0805232 -0.08261985 -0.007708954 -0.031265873
0.15394334 -0.0805313 0.046952665 0.03700562 -0.116260506 -0.12099261 -0.09022674 0.14928566
-0.074511625 -0.018954381 -0.028793305 -0.010592729 0.08130053 0.09080298 0.028906405 0.006921768
00000000: 8695 1fbe 442e ac3d bcea 9dbd 34e8 a0bd
00000010: a475 453d 606f 83bc c4bc 463d 7da6 1dbe
00000020: d8f6 223d bb32 dfbd 4226 e43d 735a ccbd
00000030: 2893 f53c 8048 473c c8b9 e9bc 34e5 9abd
00000040: 662d dbbd 1191 a2bd 409d 603b 833e 03be
00000050: 1419 e6bd 4d43 1abe c83c c03c 0060 81b9
00000060: d773 0a3e 8bb9 e4bd e0bb 7d3d a952 f9bd
00000070: 201f 933c 5bf0 1ebe 7888 a9bc 224e b33d
00000080: 8695 f43d 0ede cb3d 3e69 97bd b0eb 22bc
00000090: a7db 0f3e 49ad 1a3e 48bb 4abd c0a3 6fbb
000000a0: 30eb 36bc dc62 05bd 786d d7bd 7c42 733d
000000b0: 3df5 19be 096e 153e 8086 b5bd 5c24 a63d
000000c0: 4dd3 06be 4508 0d3e 0c49 f8bd 6030 603d
000000d0: 8e29 d6bd 4ac2 e33d 080d 52bd e4f7 09be
000000e0: 56fd 4abd 786e c43c 5e51 c03d ef61 103e
000000f0: 8026 06be e240 f53d c841 aabd f097 bd3c
00000100: 96e3 e43d e29c 6dbd 90ec a73d 305c 4c3c
00000110: 7ed3 fcbd 578c 0b3e 98c9 8e3c 60b4 943c
00000120: 90d9 82bc 7986 1d3e 1ed5 df3d 8896 9dbc
00000130: caaa 9b3d 0094 5abc 8044 ef3b 469a 923d
00000140: 86fc 9d3d 79df 0a3c 6446 cb3d 0178 93bd
00000150: 2e7d 01bd fd42 4e3e 1c22 d43d c745 c13d
00000160: 9ea2 623d 3362 113d 473d 0f3d 4f87 2ebc
00000170: db3a 0c3b cf16 343e 36dc 0c3e 8486 0bbd
00000180: 93a9 81bd a912 203e bf53 393e 0059 b33a
00000190: dc9d 183d 827e 39be fe29 98bd 5486 8b3d
000001a0: d6d3 b9bd b7eb 85bd 8c0b 69bd 8729 223d
000001b0: c87c a5bd a43d 28be 341e 29be f06f 03be
000001c0: db93 bcbc 85ba c1bd 3126 80bd 48a9 aebc
000001d0: fa9f 19bd c572 e5bd 0f52 96bc 4a44 bd3d
000001e0: cc39 1d3c 0c43 31bc 69e3 c9be 8c96 2fbe
000001f0: 7c84 433d cb0c 49be c93c 03bd 007f 99bd
00000200: 98c1 81bd e183 f23c 88f2 3bbe 32fc 293c
00000210: cb0c 4fbe 7c79 d7bd a9a8 2cbd e179 aebc
00000220: 9409 e03d da72 2a3e 390d 82bc e275 5abd
00000230: 4229 633d b8c5 16be 489f 773d f79f 5bbd
00000240: f0e1 cdbc 9e93 893d 1bf9 dbbd fa39 e2bd
00000250: a942 0c3e bd7d c43c 1eb1 353c 21c7 2cbe
00000260: 24fd 47bc 92b4 c6bd 7683 1bbe 2be9 7a3d
00000270: 32c6 ab3d a035 26be e406 33be 49d3 6abe
00000280: ea01 64bd ae06 3ebd f5ea 0a3e 089e bc3c
00000290: d483 1ebe bcf9 533d e8c8 493d 58db 053d
000002a0: 97f8 193e 2c5e bdbd 16b0 f63d 3640 ea3d
000002b0: 3046 253d 7a08 ef3d d7fa 16be 3b78 90bd
000002c0: 185d ddbd cd06 b3bd ed97 143e 4b8c 1f3e
000002d0: ff24 9abd 76da f33d 0054 31ba c8e3 17be
000002e0: 9872 c6bc c30b 033e f895 253d b47e 13be
000002f0: 70e9 573d 4098 d2bb 6620 69bd 2c80 203d
00000300: 7055 0e3d 0224 68bd a963 07be 581a 5abd
00000310: 8ca9 0c3d 5894 77bd 2484 3a3d a884 523d
00000320: cafa 783e 71f0 d63c ee5c bdbb 0483 6c3c
00000330: b25e ee3d 42dd 15bd 418f ac3d 74be 2ebd
00000340: 164e dbbc dc36 843e 3fe2 cdbc 7ebd d63d
00000350: 6a8a b13d d766 fbbc 3c55 1c3e 5dd9 5e3e
00000360: 330c 0d3e d767 c73d 1089 e33d 099b 9a3d
00000370: 8af5 82bd fea5 48be 94e0 4d3d 7a3c c9bd
00000380: 73dc 2b3c 5615 f4bc 836a 73be 6d39 dc3c
00000390: 98fb 7bbe 4b9d 3bbe bd93 623c c56e 6abe
000003a0: ca13 69bd 3c99 1cbe 1e47 87bc 2d1b 60be
000003b0: 59e9 a4bd 9934 a9bd 659b fcbb a510 00bd
000003c0: 53a3 1d3e 98ed a4bd 7051 403d 3493 173d
000003d0: fd19 eebd f9ca f7bd ccc8 b8bd 57de 183e
000003e0: 8d99 98bd 3846 9bbc f0df ebbc 208d 2dbc
000003f0: e480 a63d eaf6 b93d 20cd ec3c 00d0 e23b

0.bias f4 [16]
-0.07499244 -0.11956957 -0.16912475 0.15142156 -0.101212054 -0.061395843 -0.15505801 -0.035434224
-0.028155163 0.07214893 0.08783879 -0.092254736 0.07220896 0.05192104 -0.111469105 -0.1614995
00000000: a395 99bd e4e0 f4bd 0a2f 2dbe 410e 1b3e
00000010: 4448 cfbd 357a 7bbd 87c7 1ebe 7a23 11bd
00000020: a8a5 e6bc d1c2 933d d3e4 b33d 0df0 bcbd
00000030: 4be2 933d 28ab 543d ea49 e4bd 2060 25be

2.weight f4 [1, 16]
-0.11662367 0.18979728 0.08967034 -0.08140866 0.008888841 0.16121592 -0.18163905 0.13005298
-0.05133903 -0.011464875 0.0044970335 0.0007338091 -0.17587677 -0.2050285 0.04357025 -0.1299251
00000000: 64d8 eebd 385a 423e 15a5 b73d 95b9 a6bd
00000010: 80a2 113c c915 253e 96ff 39be 9c2c 053e
00000020: e048 52bd 2cd7 3bbc da5b 933b 185d 403a
00000030: 0a19 34be fef2 51be b876 323d 160b 05be
