classifier.pt (torch, 4989 bytes, 1 tensors)

weight f4 [1, 768]
00000000: eab7 21bd 7ba7 6a3c ceb0 78bb bf32 bd3c
00000010: 3aa0 ffbb 9138 00bc 74f8 073d 89e9 4fbd
00000020: 8f46 353c 4a8e 68bd d895 f7bc 26b5 0cbc
00000030: 3fc2 acbb 9ffa 193c 7c74 253d 3762 44bc
00000040: 6264 623d 9f0a 17bd 51d5 b0bc 3d3d 9dbb
00000050: 9f02 883b 716b 3fbd 459d 4cbc 5acb 123d
00000060: 00fd 2d3c bcfa 6b3b 2b2b 3f3d faa8 a6bc
00000070: e993 1c3c 854d 473d 0d59 6ebc 1d8a 6ebd
00000080: 565e 4cbd fe3d d4bc 9735 56bc af50 13bd
00000090: c7ff 43bd df73 b83c 4a64 503c 8f08 99bc
000000a0: a264 af3b a420 093d 411f e53b 1237 09bd
000000b0: dcd3 1ebd fd65 66bc f3fa 4dbd 5472 c1bb
000000c0: 7550 533d 24b2 3fbb 7247 b3bc 0b97 683d
000000d0: bef4 f63c 8208 333d 61d2 e93b ce66 64bd
000000e0: 7450 d5bb 53d0 11bc e37f a03c 8b1c dfbc
000000f0: ab97 22bb 701b b73c 3c15 bfbc cc21 db3b
00000100: 551f 11bc 1366 05bd 606b e23a 8e19 0fbc
00000110: c091 683d 1bf0 3c3d bed5 39bd 7a6a a6bc
00000120: 710a 3a3d f38a 36bc 4170 20bc 5b99 fb3c
00000130: ea42 853c 51af 61bd 76dd b63a 48ce d53b
00000140: b682 643d e54b d43c 6e75 42bc d48d 43bc
00000150: 845c 21bd 16dc 6c3c a97f 1dbd 471e b2bc
00000160: b1b3 ee3b acd4 fabc 495d 9ebb 9692 c8bc
00000170: 213e 44bc b269 28bd dc88 19bd 513b 813c
00000180: 154b cb3c 0a0b d3bc d113 33bd d88d 40bd
00000190: 4390 8ebc 9a92 69bc 7cba e5bc 6318 ebbc
000001a0: 880f b0bb feb0 88ba 66bd ca3c 4bf4 56bd
000001b0: caf0 323c fde5 06bc a857 5dbc 3d1e 243d
000001c0: 0890 4a3d 7c3c 073d 1eae bfbc 13a8 b03c
000001d0: 608c d7bc 9392 29bd 2957 323d 1962 34bd
000001e0: 8aaf 233c 2bba 0e3d 0b14 5b3d b3b5 e4bc
000001f0: 3d0b eabc 2790 3f3b c234 813a 004b 16bc
00000200: 00b0 94bb fe6b 983b baf3 433d 6cee 3e3d
00000210: 94dc a3bc c2b6 50bc d81e ebbc c145 863c
00000220: 06c0 6e3c 4228 de3c 2b2f c9ba dbfc 073d
00000230: 5bb5 b83c 10bd 4a3c fb57 483d a5b6 70bb
00000240: a5ea 50bd 8cf1 5bbc 09c6 afbc 33fc 8a3c
00000250: b273 3e3c c53e 4d3d fab4 893c d7ed 7bbb
00000260: ea30 fc3b 40e8 12bd 4755 58bc a8a1 b3bc
00000270: 0026 5b3d 6e56 03bb ddf9 61bc ce27 d9bb
00000280: e080 ffb8 f1a8 b13c eb71 e43c 7433 63bc
00000290: e7e2 33bd 307e 273c 129c 283d c1e5 173c
000002a0: 8d79 4a3d dc43 36bc 1919 cb3c baf7 613c
000002b0: e9f8 343c 412f 3b3d 1536 c2bc 9eb6 033c
000002c0: 9521 e1bc f41e d6b8 c1a2 cbbb 59f9 1bbd
000002d0: 0825 0e3c 8607 d3bb fb17 653d c54f bd3c
000002e0: 5c2e 4c3c 5456 473d 1e20 cd3c ec3c 1a3d
000002f0: 5767 d4bc 8c31 5fbd 188b a53b 7e05 e83c
00000300: d553 eebc b6b1 5e3d 8daa 44bd 18b7 0e3d
00000310: 036d 923c 52ec 873a 173a 25bd 9ace 01bc
00000320: 6658 a93c 24a5 c6bc 016b 2cbd 3438 72bd
00000330: 820d 2d3d 6351 c8ba a416 e3bc bf27 04bc
00000340: a570 54bd 9fe6 7f3c 6063 0f3d e0dd 96bc
00000350: f50d 633b f25f 62bd af35 2dbc 3815 21bb
00000360: 602a 21bc 7838 02bd 65cf 4bbc 4065 a1bc
00000370: 750b fe3a f34b 1ebb 2d03 373d 2069 c7bc
00000380: a264 d83c 1dc3 6e3d 8db6 a13c 0532 893c
00000390: bf0a 013c b7f2 bcbb 4651 92bc c663 cd3c
000003a0: 8d0c cf3c 8e3a 2bbd e6d9 31bc ba4e 02bd
000003b0: de48 1a3d 38c5 073d 3006 463d e49b c6bc
000003c0: 5a8a a93a 41fa 2a3c 4058 ac3c 3c37 38bc
000003d0: ae9f 363c 9120 3e3d 80c6 b8bc 626f f43a
000003e0: c9ae 17bc 262e 14bc d484 0e3d 1fa2 53bd
000003f0: d2b4 c43c 8b52 053d eb85 ea3c c266 7e3c
-0.039482035 0.014322157 -0.003794718 0.023095487 -0.007801083 -0.0078259865 0.033195928 -0.050759826
0.011064186 -0.056776322 -0.030222818 -0.008588111 -0.0052721794 0.009398132 0.04039429 -0.011986307
0.055271514 -0.036875363 -0.021586092 -0.00479856 0.004150703 -0.046733323 -0.012488668 0.035838462
0.010619402 0.0036007604 0.046672028 -0.020344246 0.009556749 0.048657913 -0.014547599 -0.058237184
-0.049894653 -0.025908466 -0.0130743 -0.035965618 -0.04785135 0.02251619 0.012719223 -0.018680839
0.0053525725 0.033478394 0.006992251 -0.033499785 -0.038776264 -0.014062402 -0.050288152 -0.0059035216
0.0515904 -0.0029250467 -0.021884654 0.05678467 0.030145999 0.043709286 0.007135675 -0.055762105
-0.006509835 -0.008899766 0.019592231 -0.02723529 -0.002480964 0.02235195 -0.023325555 0.0066873785
-0.008857568 -0.03256805 0.0017274432 -0.00873412 0.056779623 0.04612742 -0.045369856 -0.020314444
0.045420114 -0.0111415265 -0.009792388 0.030712774 0.016267259 -0.055098835 0.0013951499 0.006524835
0.05578872 0.025915096 -0.011868818 -0.01193567 -0.03939487 0.014456769 -0.038451824 -0.021742953
0.0072846045 -0.030618988 -0.004832898 -0.02448396 -0.011977703 -0.041116424 -0.037484035 0.015775355
0.024816075 -0.0257621 -0.04372007 -0.047010273 -0.017402774 -0.014256144 -0.028043024 -0.028698152
-0.005372945 -0.0010428724 0.024748515 -0.05247907 0.010921666 -0.008233544 -0.013509668 0.0400679
0.049453765 0.033016667 -0.023398455 0.021564519 -0.026312053 -0.04139955 0.043540154 -0.044038866
0.009990582 0.034845512 0.05348591 -0.027918672 -0.028569812 0.0029230209 0.0009857642 -0.009173155
-0.0045375824 0.0046515455 0.047839858 0.046614096 -0.02000264 -0.012738885 -0.02870123 0.016390683
0.014572149 0.027118806 -0.001534914 0.033200126 0.022547415 0.012374178 0.04891203 -0.0036729958
-0.051005024 -0.0134242885 -0.021456735 0.016965961 0.011624264 0.05010869 0.01680993 -0.0038441324
0.0076962607 -0.035866022 -0.013203925 -0.02192767 0.053503036 -0.002004053 -0.013792482 -0.0066270595
-0.000121833524 0.021687003 0.027886352 -0.013867248 -0.043917563 0.010222957 0.041164465 0.009271086
0.049432326 -0.011124577 0.024792241 0.013791973 0.011045673 0.04569936 -0.023707429 0.008039145
-0.027481833 -0.00010210081 -0.00621447 -0.038079593 0.008675821 -0.006440106 0.055931073 0.023109326
0.012462225 0.048666313 0.025039729 0.037655756 -0.025928183 -0.05449061 0.0050519817 0.028322931
-0.029092709 0.054368697 -0.048014212 0.03484258 0.017874246 0.0010370112 -0.040338602 -0.007922793
0.020672034 -0.024248667 -0.042094234 -0.05913563 0.04224921 -0.0015283044 -0.027720757 -0.008066117
-0.05186524 0.015618949 0.03500688 -0.018416345 0.003464577 -0.05526728 -0.010571881 -0.0024579298
-0.009836763 -0.031792134 -0.012439583 -0.0197016 0.0019382077 -0.0024154156 0.044680763 -0.02434212
0.026415173 0.058291543 0.019740367 0.016747484 0.007876097 -0.0057662386 -0.01786102 0.02507199
0.02527454 -0.04180389 -0.010855174 -0.03181336 0.037667148 0.033147067 0.048345745 -0.024244256
0.0012934909 0.010435642 0.021038175 -0.011243638 0.011146469 0.046417776 -0.02255559 0.0018648917
-0.009257981 -0.009044206 0.034794644 -0.051668283 0.024012003 0.032549422 0.02862831 0.015527429
